data.pth (torch, 3799 bytes, 6 tensors)

l1.weight f4 [8, 21]
00000000: 66b3 093f f49c 40be fac5 42bd a457 c63d
00000010: 7a6d febe 40fb 243f 8e1c 54bd b101 043f
00000020: 8985 6a3e d5f3 17bf 9300 18be f1e5 03bf
00000030: 335d 903e ac8e 2d3f b07c 6d3e 4e94 b73e
00000040: 2eb2 04be 549d ad3e 76b9 18bd 620e bc3e
00000050: 56fb a4bb dc9a a33e 3b6e dd3e 0e4f 3c3f
00000060: f412 e03e 3862 473f 72d0 12bf 953d 60be
00000070: ca5b e63e b9c8 7d3e a442 4c3f 780e cfbe
00000080: e4e9 e0be fe43 aa3e d57a 1e3f 4c86 43be
00000090: 5372 92be 8023 80be ac0a 94be 2c9b 393c
000000a0: ccda 13bf accd 69be e35e 823e 9634 abbd
000000b0: 2fa2 84bb 7882 273e 1c82 92be db13 75be
000000c0: e90d f23d e4ea 42bd 29ff 5f3e 8ccf babe
000000d0: 998a 083f 69a6 5c3f a9c1 dd3e 7de8 163f
000000e0: 3b35 90bd 8bf5 cbbc 9bba 003f 6724 063e
000000f0: 5169 d13d c8f7 43be adea d23e bb1e 883e
00000100: b442 a73d 015c 6abe ba40 673d f355 ecbe
00000110: f728 0c3f be9a 5d3e 5dc1 063f 2ad4 a43e
00000120: 5994 04bf 3036 b7be 481f 76be f315 753e
00000130: e370 473f edbe 4e3e 49f6 0b3f a666 16be
00000140: bde4 fd3d 295d a63e fbda 373f 3415 75be
00000150: fdc7 113f 6d97 993d 87a2 fdbd 6d1a 663e
00000160: 1421 adbe 831f adbe f689 69be a1be 413e
00000170: ecfe b13e 63f3 0cbf 31e0 293f 7b7f 4f3f
00000180: b296 5b3e 52ce 143f 1d36 81be 7d7c 17bd
00000190: 0fea 163f e64e fa3d 94fc 47be 0d20 adbe
000001a0: e09f 9b3e 25c8 a83e de2f 25be d52a d7bd
000001b0: ccdb 333e 88e8 abbe 5de9 abbe b8d1 c03d
000001c0: 4f92 9b3e 77cf 3e3e 3423 f6be 1ec8 3fbe
000001d0: ae78 abbe 3578 023f 1d4c 593f d7ae 3bbe
000001e0: 185a 87bd a846 59be ae82 79be bb7e 9cbd
000001f0: fe15 95be 1e30 ecbd f58e 36bd 85d8 55be
00000200: 45b0 4dbe 377e 9cbe 1e26 bfbe a665 cc3e
00000210: d3a1 973e 911d e7bd 81bd b73d 301d bfbe
00000220: acb7 9abd acc2 3b3d 8719 88bd 7f2c bfbe
00000230: e4b5 aa3e b895 d53e 825d 553d 495c c43e
00000240: 2d93 693e c5e3 083f 8b51 de3e de29 4ebe
00000250: 02af 683e a8d2 c83e 2c2f 293e 83c6 893d
00000260: 9d81 f93e 7af5 443e 56c9 adbe 18f5 a93e
00000270: 2854 053d ebbf 1c3f 609b 1b3f ca64 b1bd
00000280: 966b 45bf 5080 a93e 30b6 0f3f 2d01 313f
00000290: 8bb9 8e3e bcfc 493e 2604 f93e 111c 143f
0.53789365 -0.18809873 -0.047552086 0.09684685 -0.496929 0.6444588 -0.051785044 0.5156508
0.22902502 -0.59356433 -0.14843969 -0.5152274 0.28196105 0.67795825 0.23192096 0.35855335
-0.12958595 0.33909094 -0.037286244 0.36729723 -0.0050348444 0.31954086 0.43248162 0.7355813
0.4376446 0.77884245 -0.5734931 -0.21898492 0.44991904 0.24783601 0.79789186 -0.40440726
-0.43928444 0.33255 0.61906177 -0.19094199 -0.28602847 -0.25027084 -0.28914392 0.0113285
-0.5775573 -0.22832364 0.25463018 -0.08359639 -0.004047654 0.16358364 -0.2861489 -0.23933356
0.118190594 -0.04758729 0.2187468 -0.3648647 0.53336483 0.8619142 0.43311813 0.589485
-0.07041403 -0.024897357 0.5028474 0.13099824 0.10225166 -0.1913749 0.41194668 0.26585945
0.081670195 -0.22886659 0.056458212 -0.46159324 0.5475001 0.2164106 0.526388 0.32193118
-0.5178886 -0.3578353 -0.2403537 0.23934154 0.77906626 0.2019002 0.54672676 -0.14687595
0.12397144 0.3249295 0.7181851 -0.2393387 0.5694578 0.07499585 -0.12384515 0.22471018
-0.338143 -0.33813104 -0.22806534 0.18920375 0.34764802 -0.5505888 0.66357714 0.81053895
0.21444204 0.5812732 -0.25236598 -0.036983956 0.58950895 0.1222208 -0.19529945 -0.33813515
0.30395412 0.32965198 -0.16131541 -0.105062164 0.17564315 -0.33575845 -0.3357648 0.09415001
0.30385062 0.18633829 -0.48073733 -0.18728682 -0.3349051 0.5096467 0.84881765 -0.18328415
-0.06608981 -0.2121836 -0.24366257 -0.076413594 -0.2911834 -0.11532615 -0.04456993 -0.20883377
-0.20086773 -0.30565044 -0.3733377 0.39921302 0.2961565 -0.11284936 0.08971692 -0.37326956
-0.07554564 0.04583995 -0.06645494 -0.37338635 0.33341897 0.4171579 0.05209113 0.38351658
0.2281005 0.5347255 0.43421587 -0.20133159 0.2272301 0.39223218 0.16521901 0.06727316
0.487317 0.19234267 -0.3394267 0.33194804 0.03255096 0.61230344 0.6078396 -0.08661802
-0.7711729 0.33105707 0.5613737 0.6914242 0.27875933 0.19725317 0.48635978 0.57855326

l1.bias f4 [8]
00000000: f572 fe3e c15e 483f 557b 923e 495a ec3e
00000010: 3123 ad3e abec ab3e 3723 bf3e a25c 453f
0.4969708 0.78269583 0.2860972 0.46162632 0.3381591 0.33579 0.37331554 0.7709447

l2.weight f4 [8, 8]
00000000: 7edd 9ebe 7ec4 a13f 20c9 cbbc cadc 113e
00000010: bb4b 65be 2a31 353f 9816 6fbf 473c b83d
00000020: d11b 133f 88c7 00bf 241a a4bc 79bf 483f
00000030: e4f1 3dbf 55df 9fbe aec2 383f d68a 123f
00000040: cdfd 5b3f 61e7 873e 343f ca3d 68d0 593f
00000050: 5629 503e 6a0b 2f3f d908 a03e 5d2d 86be
00000060: 099b c73e 40fb eabe a7ad 833f 1ea0 563f
00000070: a490 743f f46e 6e3e 2282 903f f214 523f
00000080: 9f5f 013f b9c9 913e 84ea 253f 706c 8f3e
00000090: 4891 9c3f 5606 553f de98 5abf c466 3cbe
000000a0: 2666 62be 21a1 d2bb 157a 72be ffb4 fc3d
000000b0: e800 91be 2471 a2bd ef1e cbbd c5de 7c3e
000000c0: eabd 44bf 1288 823f d88e ab3e bf01 59bf
000000d0: 5b76 573f fde5 4fbf 0209 b8be 9ace 593f
000000e0: e6d3 1b3f 0635 343f 87bd bbbe 10ad f93e
000000f0: add6 29be df05 c73e c339 4f3f 0cb0 103e
-0.3102836 1.263809 -0.024876177 0.1424438 -0.2239217 0.70778143 -0.9339385 0.08995872
0.5746432 -0.5030446 -0.020031996 0.78417164 -0.7419722 -0.31225076 0.7217206 0.57243097
0.85934144 0.26543716 0.09875336 0.8508363 0.20328268 0.6837679 0.3125675 -0.26206484
0.3898547 -0.45894814 1.028737 0.8383807 0.95533204 0.23284513 1.1289713 0.8206321
0.5053653 0.28474215 0.6481097 0.2801242 1.2231836 0.8321279 -0.85389507 -0.18398577
-0.22109279 -0.0064278995 -0.23679383 0.1233921 -0.28321004 -0.07931736 -0.099180095 0.24694355
-0.76852286 1.0197775 0.3350742 -0.8476829 0.8416497 -0.8121031 -0.35944372 0.85080874
0.60870206 0.7039341 -0.36668035 0.4876485 -0.16585799 0.38871667 0.8094751 0.14129657

l2.bias f4 [8]
00000000: 032c 0e3f 0d8b 013e fd13 56be 06b2 eb3c
00000010: 6928 6ebd 7852 afbe 4059 373f 51e0 f13d
0.55535907 0.126507 -0.20906062 0.028771412 -0.058144007 -0.34242606 0.7162056 0.11810363

l3.weight f4 [4, 8]
00000000: 8a9a 3c3f 6e21 37bf 33c2 0ebf aa40 4cbf
00000010: 2599 b6be 5f67 80be 8b23 653f 24ed 783e
00000020: dea7 1a3e 5398 8bbf fac4 4f3f 218b 0d3e
00000030: 0c35 f93e fcff 7abd 8fa4 19bf f164 813e
00000040: 4c6a 07bf 41aa f4be b779 14bf 41ac 463f
00000050: 33ee 413e ad1b 9cbc 624c 163f eccf 9dbf
00000060: 6a73 81bf 9a1f 513f e338 bf3e d459 fb3e
00000070: 41e5 40bf 28fa 14bd a3d2 46bf 4e81 1c3f
0.7367331 -0.71535385 -0.55765074 -0.7978617 -0.35663715 -0.25078866 0.8950736 0.24309212
0.15103099 -1.0905861 0.8115994 0.13822605 0.48673284 -0.061279282 -0.6001672 0.25272325
-0.5289657 -0.47786143 -0.5799822 0.7760659 0.18938522 -0.019056166 0.587103 -1.2329078
-1.0113347 0.81688845 0.3734809 0.4909197 -0.75349814 -0.03637138 -0.77665156 0.61134803

l3.bias f4 [4]
00000000: 158d 093f 4ab7 e1be 4a60 e5be dd8b 793e
0.537309 -0.4408515 -0.44800025 0.2436976
